segmentation_model.pth (torch, 551410 bytes, 14 tensors)

layers.0.weight f4 [32, 3, 3, 3]
0	0x3e0facff	0.14030837
1	0x395f2588	0.00021280919
2	0xbe43f435	-0.19136126
3	0xbd115691	-0.035482947
4	0xbe2b8eb6	-0.16753659
5	0xbe323e6d	-0.17406626
6	0x3e320008	0.17382824
7	0x3e2bc7c8	0.16775429
8	0xbde903ef	-0.113777034
9	0xbd65ed1e	-0.056134336
10	0xbd686486	-0.05673649
11	0x3d0ded82	0.034650333
12	0x3b2dc14b	0.0026512917
13	0x3e1192da	0.14216176
14	0x3db7f802	0.089828506
15	0x3d20fd77	0.039304223
16	0xbe18f0a4	-0.14935547
17	0x3e26b994	0.1628173
18	0xbe1d1f54	-0.15343982
19	0xbe002c05	-0.12516792
20	0xbd49caeb	-0.049265783
21	0xbddb53aa	-0.10709317
22	0x3e1e307d	0.15448184
23	0x3dc2c1b3	0.095096014
24	0xbd32525d	-0.04353558
25	0xbe0e9fc5	-0.13928135
26	0xbe1cbb3a	-0.15305796
27	0x3e0b71cf	0.13617633
28	0x3d7a8a50	0.06116706
29	0xbad72341	-0.0016413705
30	0xbc93bb72	-0.018033717
31	0xbe377040	-0.17913914
32	0xbcae5fa1	-0.021285834
33	0xbe19c6a2	-0.15017179
34	0xbcf790c3	-0.030220395
35	0x3dac7e04	0.08422473
36	0x3ca96c20	0.02068144
37	0x3e32591c	0.17416805
38	0xbe32acc7	-0.17448722
39	0xbe1a5000	-0.1506958
40	0xbe315940	-0.17319202
41	0xbd916911	-0.07100118
42	0x3e320532	0.17384794
43	0xbde69252	-0.11258377
44	0xbd061420	-0.032734036
45	0x3dd9d2da	0.1063592
46	0x3b3c92fd	0.0028774135
47	0x3dbdf81d	0.092758395
48	0xbe48640c	-0.19569415
49	0xbdfe63af	-0.12421357
50	0x3e249800	0.16073608
51	0x3d05c3fe	0.032657616
52	0xbe1c6897	-0.15274273
53	0xb8687b68	-5.542804e-05
54	0xbdd59b42	-0.10430004
55	0x3be61805	0.0070219063
56	0xbd8407dd	-0.06446812
57	0xbd7f4866	-0.062324904
58	0xbd9e57f4	-0.077316195
59	0x3d3c3bc8	0.04595545
60	0x3e5022a9	0.20325722
61	0x3e3674c1	0.17817976
62	0x3dc73d6a	0.09728511
63	0xbc12e42c	-0.008965533
64	0x3d6bd78a	0.0575786
65	0x3ddc66a6	0.10761766
66	0xbdf89db6	-0.12139456
67	0x3e21eca1	0.15812923
68	0xbe3fc53b	-0.18727581
69	0xbde753b3	-0.11295261
70	0xbc44bef5	-0.012008418
71	0x3dc9e169	0.09857447
72	0x3c4f8289	0.012665399
73	0xbe3851a9	-0.17999901
74	0xbdeb1fb4	-0.11480656
75	0x3d0f0a92	0.03492219
76	0xbc8a101f	-0.01685339
77	0xbe0aa8ce	-0.13540956
78	0xbe0bdf0f	-0.13659309
79	0xbcd7862e	-0.026309099
80	0xbcd158e1	-0.025555076
81	0x3e166d25	0.14690073
82	0xbb6977a5	-0.0035624292
83	0xbd11cd41	-0.035596136
84	0xbdf79180	-0.12088299
85	0xbd780f01	-0.060561184
86	0xbe411f11	-0.18859507
87	0x3df15d55	0.1178538
88	0xbdf506da	-0.119641975
89	0xbda7184f	-0.08158933
90	0x3db79109	0.0896321
91	0x3e31613d	0.1732225
92	0x3e209d02	0.15684894
93	0xbdba1ef1	-0.09087933
94	0x3dbfd69e	0.09367107
95	0x3c750a52	0.014956074
96	0x3cd64490	0.02615574
97	0xbdf91868	-0.12162858
98	0x3dbb007b	0.09130951
99	0x3cfba77a	0.030719507
100	0x3d875ea3	0.066098474
101	0xbe18fcaa	-0.14940134
102	0x3d664727	0.0562202
103	0x3e17eeee	0.14837238
104	0x3e03b8c4	0.12863451
105	0x3de6030f	0.11231052
106	0x3d78b007	0.060714748
107	0xbbf1b953	-0.0073768287
108	0xbbc7e5c9	-0.0061003906
109	0x3d54ca4a	0.05195073
110	0x3e0d9bcd	0.13828965
111	0xbdc98d81	-0.09841443
112	0xbe15b01e	-0.14617965
113	0xbc3855fd	-0.01125097
114	0x3d828512	0.063730374
115	0xbe1e27cd	-0.1544487
116	0x3e26e194	0.16296989
117	0x3d464127	0.048401978
118	0xbe259783	-0.16171078
119	0x3dc3db22	0.09563281
120	0x3e28185f	0.16415547
121	0xbe25f027	-0.16204892
122	0xbca328f0	-0.019916981
123	0xbe1c91db	-0.15290014
124	0xbd7ad7c2	-0.06124092
125	0xbdd77ee6	-0.10522251
126	0x3e15baa0	0.14621973
127	0xbdd09b61	-0.10185886
128	0x3e06e9ed	0.13175173
129	0x3c70f77e	0.014707444
130	0xbd98c7d3	-0.074599884
131	0x3e360666	0.17775878
132	0x3e00a6c8	0.12563622
133	0x3e41a8b0	0.18912005
134	0x3da85155	0.08218638
135	0xbcc3e8ff	-0.023914812
136	0xbe1d94bd	-0.1538877
137	0x3dd3ed6b	0.10348018
138	0xbd55900f	-0.052139338
139	0xbd782cd3	-0.060589623
140	0x3dd1aa25	0.102375306
141	0x3e1adc9d	0.1512322
142	0x3e380463	0.17970423
143	0xbe473487	-0.19453631
144	0xbdece723	-0.11567523
145	0x3e1de3f4	0.15418988
146	0x3df27f32	0.11840667
147	0xbe296c3c	-0.16545194
148	0xbcd3c384	-0.025850065
149	0x3da3a319	0.07990093
150	0x3df77707	0.120832495
151	0xbd60d837	-0.0548937
152	0xbe2cc484	-0.1687184
153	0xbe415b4e	-0.18882486
154	0x3d80f35f	0.06296419
155	0xbe194372	-0.14967135
156	0xbe3e15b8	-0.18562973
157	0xbca82b49	-0.020528452
158	0x3e033831	0.12814404
159	0xbd6429b3	-0.05570383
160	0x3e0f8573	0.1401575
161	0xbde995a1	-0.114054926
162	0xbde1a42b	-0.11017641
163	0x3ce7c4b0	0.02829203
164	0xbae05c56	-0.0017117362
165	0xbd0bf026	-0.03416457
166	0x3e313af8	0.17307651
167	0x3cb060c0	0.021530509
168	0x3e530ecb	0.20611112
169	0xbd84a8ba	-0.064774945
170	0x3e3f48da	0.18680134
171	0xbcf0da65	-0.029401014
172	0xbe17ace0	-0.1481204
173	0x3e2f3245	0.1710902
174	0xbde19b38	-0.11015934
175	0x3c209172	0.009800302
176	0x3e21299b	0.15738527
177	0x3c758be4	0.014986966
178	0xbdfba3d7	-0.12287109
179	0xbd4ffd70	-0.050778806
180	0x3d2433b9	0.04008839
181	0x3e2c29e6	0.16812858
182	0xbc838f21	-0.01605946
183	0xbdb30ab2	-0.08742274
184	0x3db6fc92	0.08934893
185	0x3cae9c27	0.021314694
186	0x3e18859b	0.14894716
187	0xbd41465d	-0.047186244
188	0xbd447e73	-0.047972154
189	0xbd8bc4fe	-0.06824683
190	0xbe02c782	-0.12771419
191	0x3e162520	0.146626
192	0x3dcfcd0a	0.1014653
193	0x3e19c642	0.15017036
194	0xbe42a408	-0.19007885
195	0xbcec1627	-0.028819157
196	0xbcf2ccba	-0.029638637
197	0x3d775f72	0.060393758
198	0xbe3dadf8	-0.18523395
199	0x3d1b49a3	0.037912022
200	0xbc71163e	-0.014714776
201	0xbe18077b	-0.14846604
202	0xbd48e259	-0.049043987
203	0x3deb0227	0.1147502
204	0xbdd718b2	-0.10502757
205	0xbcd6f863	-0.026241487
206	0xbd4d5f2b	-0.050139587
207	0xbd0c593e	-0.034264795
208	0x3e37abea	0.17936674
209	0x3db21aed	0.08696542
210	0xbca40178	-0.020020232
211	0x3e002d60	0.12517309
212	0x3e1f66cd	0.15566559
213	0x3e2d6f25	0.1693693
214	0xbd632b7c	-0.05546139
215	0xbdef9af3	-0.11699476
216	0xbdb09657	-0.08622425
217	0x3dae6ab0	0.08516443
218	0x3e69d5ac	0.22835416
219	0x3e7d659b	0.2474579
220	0xbcded6fb	-0.02720212
221	0x3e0e6c21	0.13908435
222	0xbc075d04	-0.008261923
223	0xbe277c64	-0.16356045
224	0xbdc9c242	-0.09851505
225	0xbdc3bc4a	-0.09557398
226	0xbc8d9efd	-0.017287726
227	0x3e696ffa	0.22796622
228	0x3c794471	0.015214072
229	0xbdf0f61a	-0.1176569
230	0xbcbf1c84	-0.023329027
231	0xbbbc371c	-0.0057438742
232	0x3ac7973d	0.0015227568
233	0x3e219825	0.15780695
234	0xbd3eadbc	-0.046552405
235	0x3dd56153	0.10418954
236	0x3e4cbcd3	0.19993906
237	0x3e15d8af	0.1463344
238	0x3e048be8	0.12943995
239	0x3dca76f4	0.0988597
240	0x3cd74780	0.026279211
241	0xbd72c0e6	-0.059265994
242	0xbe369dcb	-0.1783363
243	0x3dc3c65b	0.09559318
244	0xbe281af3	-0.1641653
245	0x3d0b14ea	0.033955492
246	0xbdf6590e	-0.120287046
247	0x3e04c212	0.12964657
248	0xbe39ab10	-0.18131661
249	0xbd07b2a9	-0.033129368
250	0x3ddc7775	0.10764972
251	0x3d817edb	0.06323024
252	0x3e31732e	0.17329094
253	0xbd79b98a	-0.06096796
254	0x3e207fad	0.15673704
255	0xbe2255d5	-0.15853055

layers.0.bias f4 [32]
0	0x3e6a381d	0.22872968
1	0x3bf534fe	0.007483124
2	0xbd13b051	-0.03605682
3	0xbd177f27	-0.036986496
4	0xbdf43a59	-0.119251914
5	0xbe179617	-0.14803348
6	0xbdb6314e	-0.08896123
7	0xbe16b74a	-0.14718357
8	0xbe0cf55e	-0.13765475
9	0x3e4a44b2	0.19752768
10	0x3e27f7be	0.164031
11	0x3e6a5c23	0.2288671
12	0xbe0b9707	-0.13631831
13	0x3e735a27	0.23764859
14	0x3dc7a8c2	0.09748985
15	0xbd6d828e	-0.057985835
16	0x3dacf522	0.08445193
17	0x3d1cbd15	0.03826626
18	0x3e3dce62	0.1853576
19	0x3da6195d	0.081103064
20	0xbdf0ad99	-0.11751861
21	0x3dd3441a	0.10315724
22	0x3e4f159f	0.20223092
23	0xbc3b02c0	-0.01141423
24	0x3c1e1e4e	0.00965078
25	0xbd3b0857	-0.04566225
26	0x3d1b2af4	0.03788276
27	0xbdc6773c	-0.09690711
28	0x3e505b7b	0.20347397
29	0x3d323044	0.04350306
30	0x3ddce0c5	0.10785059
31	0xba4a3ebf	-0.00077150384

layers.3.weight f4 [64, 32, 3, 3]
0	0x3d9e8b9a	0.07741471
1	0x3d037b20	0.032099843
2	0x3dadc3d2	0.084846154
3	0x3d452dd9	0.048139427
4	0x3cf8da24	0.030377455
5	0x3df33d69	0.118769474
6	0x3d89b260	0.067234755
7	0x3dec381c	0.115341395
8	0x3daaa926	0.08333044
9	0x3d0ea01c	0.03482066
10	0x3c3343bf	0.010941445
11	0x3c3e3050	0.011608198
12	0xbd91f9a3	-0.071276926
13	0xbcf2ec38	-0.029653654
14	0x3d138715	0.036017496
15	0x3c238743	0.009980979
16	0xbcc5e8fe	-0.02415895
17	0xbd939b60	-0.0720737
18	0x3d41a4b3	0.04727621
19	0xbd1f2dbe	-0.038861983
20	0xbd37dbf9	-0.044887517
21	0xbd8eaf43	-0.06967022
22	0xbd3c064c	-0.045904443
23	0xbcebb061	-0.028770627
24	0xbd0279c5	-0.03185441
25	0xbcce1f8b	-0.025161525
26	0x3cfbdb01	0.030744078
27	0x3d27349d	0.04082166
28	0x3d2679b0	0.040643394
29	0xbc9594ac	-0.018259369
30	0x3d34311a	0.04399214
31	0xbd4f2f96	-0.05058249
32	0x3d4a2c4b	0.049358647
33	0xbc8bc36a	-0.017060954
34	0xbc8692f5	-0.016427496
35	0x3d3d4bd9	0.046214912
36	0x3ce3321f	0.02773386
37	0x3d0c1503	0.034199726
38	0x3d6c9ee2	0.05776871
39	0xbc2bcc52	-0.0104857255
40	0xbce3362d	-0.027735794
41	0xbcd81b0c	-0.026380084
42	0xbc82e58b	-0.015978595
43	0x3d7494ec	0.059712335
44	0x3d04f51b	0.032460313
45	0xbd04b1a8	-0.03239599
46	0x3be9a46e	0.0071301972
47	0xbd3451c7	-0.0440233
48	0xbd167d14	-0.036740378
49	0x3c57ded6	0.013175687
50	0x3c98e8ca	0.01866569
51	0xbb436c9b	-0.0029819373
52	0x3d32e190	0.043672144
53	0x3d09fbae	0.033687286
54	0xbd171fb5	-0.036895473
55	0xbd5273de	-0.05138003
56	0xbcc5f295	-0.024163524
57	0xbd407df4	-0.04699512
58	0x3b051457	0.0020306313
59	0x3d11c49b	0.03558789
60	0xbc85293c	-0.016255014
61	0x3cf28426	0.029604029
62	0x3cfc0a51	0.030766638
63	0x3cf3d59e	0.029764947
64	0xbcacff4e	-0.021117833
65	0xbb332260	-0.0027333722
66	0x3d859133	0.06521835
67	0x3bceb74f	0.006308473
68	0xbd1c071c	-0.038092718
69	0x3d379396	0.044818483
70	0xbd4ab1c3	-0.049485933
71	0xbd084d37	-0.033276763
72	0xbcb80538	-0.022463426
73	0xbd08de77	-0.033415284
74	0xbc87fc0e	-0.016599681
75	0x3d62e21a	0.05539141
76	0x3cba3ffc	0.022735588
77	0x3ce50747	0.027957572
78	0xbdb5262d	-0.08845172
79	0xbc433e5d	-0.011916724
80	0xbc55034f	-0.013001277
81	0x3d567879	0.052360985
82	0x3d89492d	0.0670341
83	0x3cada718	0.02119784
84	0x3bef709b	0.007307125
85	0x3c91d92e	0.017803755
86	0x3cf6a59a	0.030108262
87	0x3d82db2c	0.0638946
88	0x3c7ea5ce	0.015542461
89	0x3d186cf9	0.0372133
90	0x3e02b40b	0.12763993
91	0x3d8b41f8	0.06799692
92	0x3d696682	0.056982525
93	0x3d68ba51	0.05681831
94	0x3d6e2648	0.058141977
95	0x3dad642f	0.08466374
96	0x3d63f15c	0.0556501
97	0x3dcf4ff1	0.101226695
98	0x3e02237f	0.12708853
99	0x3dd63219	0.10458774
100	0x3d4929e2	0.04911221
101	0x3ddcaf73	0.10775652
102	0x3de73a91	0.112904675
103	0x3c116220	0.0088734925
104	0x3d737596	0.05943831
105	0x3da15944	0.07878354
106	0x3b1f18a4	0.0024276162
107	0x3db1bd45	0.086786784
108	0xbcf9661e	-0.030444201
109	0x3ce99f54	0.028518356
110	0x3ba6df55	0.005092541
111	0x3badcb47	0.0053037736
112	0x3d2f8377	0.042849984
113	0xbd734d84	-0.059400097
114	0x3cf9fdf6	0.030516606
115	0xbd48c63e	-0.049017183
116	0xbab08b0a	-0.0013469171
117	0x3ced4891	0.028965266
118	0x3d0dfe58	0.03466639
119	0x3ddaab8f	0.106772535
120	0x3df8053f	0.121103756
121	0x3d9b8d4d	0.0759531
122	0x3d95b827	0.07310515
123	0x3dd63339	0.10458989
124	0x3debd9ad	0.11516128
125	0x3d48f465	0.049061198
126	0x3be07436	0.006849791
127	0x3d0ef8f8	0.034905404
128	0x3c90c023	0.017669743
129	0xbce21753	-0.027599012
130	0x3c665af1	0.014059768
131	0xbd0db35a	-0.03459487
132	0xbd21d79e	-0.03951227
133	0x3c0cc0c9	0.008590885
134	0x3d5a0c94	0.05323465
135	0x3d7f4773	0.062324
136	0x3d5bc0db	0.05365072
137	0xbcd0a5ba	-0.02546965
138	0x3d72cdc2	0.059278257
139	0x3c14c689	0.009080538
140	0x3cb4295e	0.021992382
141	0x3c2430b4	0.010021377
142	0xbd4cae19	-0.04997072
143	0x3c44f8f0	0.012022242
144	0x3d934154	0.07190195
145	0xbd048546	-0.032353662
146	0x3d924d3f	0.0714364
147	0xbc98afe6	-0.018638562
148	0x3b9e0b98	0.0048231594
149	0xbd044ec4	-0.03230168
150	0x3cbdd73a	0.023173917
151	0xbbafc824	-0.005364435
152	0xbce2b7d3	-0.027675545
153	0xbcf747a0	-0.03018552
154	0xbd8fc048	-0.070190966
155	0xbd930c29	-0.07180054
156	0xbd49d67f	-0.049276825
157	0x3c3108fe	0.010805367
158	0xbd9d2c9a	-0.07674523
159	0xbd18a58c	-0.037267253
160	0xbb159ab0	-0.0022827797
161	0x3c099759	0.0083979005
162	0x3cdffef5	0.027343253
163	0x3d7a59c0	0.06112075
164	0x3d3b79cd	0.045770455
165	0x3c78c5a9	0.015183845
166	0x3c1f39cb	0.009718369
167	0x3bde40f6	0.0067826463
168	0xbc07d5e0	-0.008290738
169	0xbc8ba0f9	-0.017044531
170	0xbc4efe3b	-0.012633855
171	0xbb221568	-0.0024731997
172	0x3c3f7b99	0.011687183
173	0x3bac62fa	0.0052608224
174	0x3a582822	0.00082457263
175	0xbd1c6b3a	-0.038188197
176	0xbd283d28	-0.04107395
177	0xbc1883aa	-0.009308735
178	0xbd323d54	-0.04351552
179	0x3cb86d1b	0.022512963
180	0x3ad5efa4	0.0016322029
181	0xbcaaed71	-0.020865174
182	0xbd0d3311	-0.03447253
183	0x3c1711b9	0.009220534
184	0x3d060bfc	0.032726273
185	0xbd36798d	-0.044549514
186	0x3c88b04e	0.016685631
187	0x3c927726	0.01787908
188	0xbd1d0e26	-0.03834357
189	0x3d609357	0.054828014
190	0x39b396f9	0.00034254024
191	0x3d4172e8	0.047228724
192	0x3cdcad30	0.026938051
193	0x3c961622	0.0183211
194	0x3d6091f8	0.054826707
195	0x3d2fe01e	0.042938344
196	0x3d304b4a	0.04304055
197	0x3cc4765b	0.023982218
198	0x3e046b32	0.12931517
199	0x3d2d71bf	0.042344805
200	0x3daf5df6	0.085628435
201	0x3ddd889e	0.10817073
202	0x3e027caa	0.12742868
203	0x3d98367b	0.07432266
204	0x3d182c38	0.037151545
205	0x3d27f4e9	0.04100505
206	0x3d9db8db	0.07701274
207	0xbce03e4f	-0.027373461
208	0xbd8986e3	-0.06715181
209	0xbd933f59	-0.07189817
210	0xbbe1a5a2	-0.0068862
211	0xbd65414e	-0.055970483
212	0xbcd428e2	-0.0258984
213	0xbdec17bf	-0.11527967
214	0xbd42b255	-0.047533352
215	0xbdcddda7	-0.100520425
216	0xbc8f5871	-0.017498227
217	0x3bcef5e1	0.006315932
218	0x3ce3d4f1	0.0278115
219	0xbc9d4b9a	-0.019201089
220	0x3ce0c226	0.027436327
221	0xbd3880f1	-0.045044843
222	0xbce1fd23	-0.027586525
223	0xbcec7871	-0.028866025
224	0xbc46e731	-0.012140081
225	0xbc12b7c4	-0.008954946
226	0x3c41fdbd	0.011840281
227	0x3c1ff2b2	0.009762453
228	0x3c0db832	0.008649873
229	0xbd09a81d	-0.03360759
230	0xbd21187a	-0.039329983
231	0x3d1b13ca	0.03786067
232	0x3cc36a11	0.023854287
233	0x3d015afa	0.031580903
234	0xbc5371bf	-0.012905537
235	0x3c82781c	0.015926413
236	0x3c22fd9d	0.009948161
237	0x3c529d1b	0.01285484
238	0xbbececd8	-0.0072303824
239	0x3cb8f701	0.022578718
240	0x3d455dda	0.048185207
241	0x3d3c6fd8	0.0460051
242	0xbca5aff9	-0.020225512
243	0x3d269de8	0.040677935
244	0x3c7ba36e	0.015358789
245	0x3d1c96bf	0.0382297
246	0x3d0e79e4	0.034784213
247	0xbd5b8deb	-0.05360214
248	0xbc79ac0e	-0.015238775
249	0x3d0cbe11	0.03436095
250	0xbbedf4a0	-0.0072618276
251	0xbd189a17	-0.037256327
252	0xbcb55b3a	-0.022138227
253	0x3cdcbac8	0.026944533
254	0x3c4806f8	0.012208693
255	0xbb06b44a	-0.0020554238

layers.3.bias f4 [64]
0	0x3da4193b	0.08012625
1	0x3c1d7fd1	0.009612993
2	0xbcb5b3d9	-0.022180485
3	0x3db971fa	0.090549424
4	0x3da74d79	0.081690736
5	0xbcc9db49	-0.024640696
6	0x3d27b213	0.04094131
7	0xbd12c1af	-0.035829242
8	0xbcef25c7	-0.029192818
9	0x3d2df098	0.042465776
10	0x3d78839c	0.060672387
11	0x3d026d4b	0.03184251
12	0x3d8ab69e	0.06773113
13	0x3cc6f38c	0.024286054
14	0x3c3e9c8c	0.011634003
15	0xbd248c87	-0.04017308
16	0x3d5b8002	0.053588875
17	0xbb92b8b5	-0.004477585
18	0x3c706be8	0.014674164
19	0x3cf83907	0.03030063
20	0x3da4adf6	0.08040993
21	0x3daea3a6	0.08527307
22	0x3c6d6363	0.014489028
23	0x3db0b475	0.086281694
24	0x3d4cb341	0.049975637
25	0x3b9434ff	0.004522919
26	0x3d096fe0	0.033553958
27	0xbce2e6f7	-0.027698023
28	0x3d84d7e1	0.06486488
29	0x3cdfc3e5	0.02731509
30	0x3c2c1286	0.010502463
31	0xbc80647b	-0.015672913
32	0x3d8761b3	0.066104315
33	0x3cea6ace	0.028615382
34	0xbd26e46a	-0.040745176
35	0x3d929901	0.071580894
36	0x3db0efbc	0.08639476
37	0x3afdae5e	0.0019354334
38	0xbd032e4b	-0.03202657
39	0xbb3354ec	-0.002736385
40	0x3d62e1f4	0.055391267
41	0x3d507467	0.05089226
42	0x3c978ae9	0.018498855
43	0xbcb21ae3	-0.021741336
44	0x3d360531	0.044438545
45	0x3da28b11	0.07936681
46	0x3d13b8e0	0.036064982
47	0x3d34d074	0.04414411
48	0x3db95792	0.09049906
49	0x3d43e667	0.04782715
50	0x3d68220a	0.056673087
51	0x3d2ea952	0.042641945
52	0xbc68b944	-0.014204327
53	0xbcc8bd15	-0.024504224
54	0x3c25fc9c	0.010131028
55	0xbd093a1c	-0.033502683
56	0x3d7b390c	0.0613337
57	0x3c967eb1	0.018370958
58	0x37d079dc	2.4852277e-05
59	0xbd042ccc	-0.032269284
60	0x3dac4865	0.08412246
61	0x3cd46084	0.025924928
62	0xbcd5ce71	-0.026099415
63	0xbd56d8cb	-0.052452844

layers.6.weight f4 [128, 64, 3, 3]
0	0x3d8da137	0.06915515
1	0x3d75ba47	0.0599921
2	0x3cc33c5a	0.023832489
3	0x3d516bfe	0.05112838
4	0x3bce3aea	0.006293644
5	0x3c4ed268	0.012623407
6	0x3d1bf57a	0.0380759
7	0xbc36fafa	-0.011168236
8	0x3d848629	0.064709015
9	0xbb4cbcc3	-0.003124044
10	0xbbcfaa39	-0.006337431
11	0x3d257bb2	0.04040117
12	0x3cdc9558	0.026926681
13	0x3c0dfc34	0.008666087
14	0x3c3fcae6	0.01170609
15	0xbc932774	-0.017963149
16	0x3d08be96	0.033384882
17	0x3beef293	0.0072921007
18	0x3d405f51	0.0469659
19	0x3cfd7c07	0.03094293
20	0x3b41ab39	0.002955152
21	0x3d22c8db	0.039742332
22	0x3c41535f	0.011799662
23	0xbc999b2f	-0.018750755
24	0xbc68aaab	-0.014200847
25	0x3c893768	0.016750053
26	0x3adde363	0.0016928728
27	0x3d275c7c	0.040859684
28	0x3cc7f4a9	0.024408655
29	0x35da1c38	1.6250478e-06
30	0x3c3c4017	0.01148989
31	0x3c03bc45	0.008040492
32	0x3d333c21	0.043758515
33	0x3c9090ef	0.017647235
34	0x3d6b5edf	0.057463523
35	0xbc7b384c	-0.015333246
36	0x3cec48a4	0.028843231
37	0x3d141a95	0.036158163
38	0x3d744f1b	0.059645753
39	0x3cad2307	0.021134866
40	0x3d1e25f5	0.038610417
41	0x3d153343	0.03642584
42	0x3d75c694	0.060003832
43	0x3d2e2e40	0.042524576
44	0x3d18c645	0.03729846
45	0xbd0a13ef	-0.033710416
46	0xbc88869a	-0.016665746
47	0xbc4338b9	-0.011915379
48	0x3c2c7bec	0.010527592
49	0x3be39896	0.00694568
50	0x3c63a4f0	0.013894305
51	0x3cdfae11	0.027304681
52	0xbd370f12	-0.044692107
53	0xbb9250e9	-0.0044652116
54	0xb924eae5	-0.00015727764
55	0x3cb4fad4	0.02209226
56	0x3d3c2e36	0.045942508
57	0x3d0e8222	0.034792073
58	0xbc88abda	-0.016683508
59	0x3cceff62	0.02526826
60	0x3d698bbf	0.057018038
61	0xbbc94374	-0.0061420742
62	0x3c2ec4d4	0.010667045
63	0x3c3f707e	0.011684535
64	0xbd24d40e	-0.040241294
65	0xbce1fb01	-0.027585508
66	0xbcc42b04	-0.023946293
67	0xbc1cae6e	-0.009563072
68	0xbad24909	-0.0016043495
69	0xbc35caab	-0.011095683
70	0xbd2e83aa	-0.042606033
71	0xbcf8cca4	-0.030371018
72	0x3cd545b4	0.026034214
73	0xbc29d96b	-0.010366778
74	0x3c54596b	0.012960772
75	0xbd2b65f1	-0.041845266
76	0xbd1883b9	-0.037234996
77	0xbd1cefdb	-0.03831468
78	0xbd16c7d2	-0.036811657
79	0xbd48b195	-0.04899748
80	0xbc425c7b	-0.011862869
81	0x3cf70b70	0.030156821
82	0xbbde0053	-0.006774941
83	0x3b3cdfcf	0.0028819924
84	0x3d0e9581	0.034810547
85	0x3d3f4ce4	0.046704188
86	0x3d19e3d7	0.0375708
87	0x3d2554a6	0.04036393
88	0x3d373dcd	0.044736672
89	0x3d526076	0.051361524
90	0x3b872b8b	0.004125064
91	0x3d7acb22	0.06122888
92	0x3c9095b5	0.01764951
93	0x3d0cec67	0.03440514
94	0x3bee6c1c	0.0072760712
95	0x3ac5185e	0.0015037169
96	0x3cf41dbe	0.029799338
97	0x3d2f435e	0.042788856
98	0x3d5f1564	0.05446376
99	0xbba6c50b	-0.0050894073
100	0x3cc10298	0.023560807
101	0x3c6fef94	0.014644522
102	0x3cdd575a	0.027019192
103	0x3d326be6	0.04355993
104	0x3b4f4c3c	0.0031631133
105	0xbc587aba	-0.013212854
106	0x3d35178f	0.04421192
107	0x3d06edc3	0.03294159
108	0x3d90a956	0.07063548
109	0x3d4a51e6	0.04939451
110	0x3dd8f99a	0.10594483
111	0x3d948ff7	0.072540216
112	0x3da31ff2	0.079650775
113	0x3df43fb5	0.11926214
114	0x3d3f3be5	0.04668798
115	0x3d7d7fd0	0.06188947
116	0x3d9b823e	0.07593201
117	0x3d6bdc28	0.057583004
118	0x3c6945a2	0.014237793
119	0x3d067bb4	0.032832816
120	0x3b29a6ed	0.002588685
121	0x3c2391d1	0.009983496
122	0x3d547fb3	0.051879596
123	0xbc1f79b5	-0.009733607
124	0x3d16059b	0.03662644
125	0x3bf18042	0.007370026
126	0x3cedbeaa	0.02902158
127	0x3af9f324	0.0019069654
128	0x3cc22fb4	0.023704387
129	0x3ced4fe2	0.028968755
130	0x3b768938	0.003761841
131	0xbaa207ac	-0.0012361906
132	0x3d8f07fa	0.06983943
133	0xbb8739d3	-0.004126766
134	0x3ac10363	0.0014725741
135	0xbbcadf42	-0.006191165
136	0xbbdce02f	-0.006740592
137	0xbc8a443d	-0.016878242
138	0xbd2f8d7a	-0.042859532
139	0xbc63fb61	-0.013914914
140	0xbd3a79bf	-0.045526262
141	0xbd9c108d	-0.07620344
142	0xbd63b665	-0.055593867
143	0xbd26c132	-0.04071159
144	0x3d2a55fb	0.041585904
145	0xbb0a603f	-0.0021114496
146	0x3cc6ff01	0.024291517
147	0x3ce45888	0.027874246
148	0x3d10a062	0.035309203
149	0x3d49ca09	0.04926494
150	0x3c919fcc	0.017776392
151	0x3cd19d84	0.025587805
152	0xbc862bef	-0.016378371
153	0x3d76db8f	0.06026798
154	0x3d548b67	0.051890757
155	0x3d7f9a1b	0.062402826
156	0x3c9f540a	0.019449253
157	0x3daa550c	0.08317003
158	0x3dba4570	0.090952754
159	0x3d65476d	0.05597632
160	0x3cd41aba	0.02589165
161	0x3d6c8872	0.057747312
162	0xbcb1336a	-0.021630961
163	0x3c9daa8a	0.019246358
164	0x3d522957	0.051308956
165	0x3c466c84	0.012110833
166	0xbb971d41	-0.0046116416
167	0x3d2693f7	0.040668454
168	0xbbedd651	-0.0072582145
169	0xbcba2dfa	-0.022727001
170	0x3c9f2710	0.019427806
171	0x3d3b91be	0.045793287
172	0x3cd97fd3	0.02655021
173	0x3d7268ac	0.059181854
174	0xbc8a7f8b	-0.01690652
175	0x3b86f3ac	0.0041184034
176	0x3bf105fd	0.00735545
177	0xbd3bb430	-0.045826137
178	0xbdc7e08f	-0.09759628
179	0xbd784e84	-0.060621753
180	0x3cc6db1c	0.024274401
181	0x3d76907a	0.060196377
182	0x3d4b14a3	0.049580228
183	0x3d345bea	0.04403297
184	0x3d2a336c	0.041552946
185	0x3bad7a76	0.0052941395
186	0x3d0f4f70	0.034987867
187	0xbc0f54a4	-0.008748207
188	0x3d31b39e	0.043384187
189	0xbc9906c8	-0.018679991
190	0x3c98e13a	0.018662084
191	0xbb92d72b	-0.0044812164
192	0xbc899b8c	-0.016797803
193	0x3ca4f81c	0.020137839
194	0x3c424cff	0.011859178
195	0xbc50e1e9	-0.012749174
196	0x3d26a103	0.040680896
197	0xbc30e3c0	-0.010796487
198	0x3d67dd36	0.056607448
199	0xbc1e0018	-0.009643577
200	0x3d1551d3	0.036454987
201	0x3bdd3c2b	0.0067515573
202	0x3d5fff69	0.054686937
203	0x3d0f4886	0.034981273
204	0xbc15e39b	-0.009148504
205	0xbc2f43af	-0.010697289
206	0xbcb673ad	-0.022271955
207	0xbc139fb3	-0.009010243
208	0x3d240e9a	0.040052988
209	0x3bcc7119	0.006239068
210	0x3d313046	0.043258928
211	0x3ce0581c	0.027385764
212	0x3d3eb7d9	0.04656205
213	0x3d607d9c	0.05480729
214	0xba2931a4	-0.00064542354
215	0x3d118186	0.035523914
216	0xbbe3d5e5	-0.0069529884
217	0xbcb8365f	-0.022486864
218	0x3c53335f	0.012890666
219	0xbc83d85d	-0.016094381
220	0x3cbb8d48	0.022894517
221	0xbbe55aac	-0.0069993343
222	0x3d1e431e	0.038638227
223	0x3cabc32d	0.02096709
224	0xb9f91573	-0.00047508962
225	0x3d7082a7	0.05871835
226	0x3d8dbed5	0.06921164
227	0x3d6584d6	0.056034885
228	0x3d956077	0.0729379
229	0x3d223962	0.039605506
230	0x3cf175d0	0.029475123
231	0x3d8d405a	0.0689704
232	0x3d0640be	0.032776587
233	0x3d036d5f	0.032086726
234	0x3d0dab9d	0.03458749
235	0x3d5e27e6	0.05423727
236	0xbc790340	-0.015198529
237	0x3d0655ab	0.032796543
238	0xbced2bbd	-0.02895152
239	0xbc2cf9db	-0.010557617
240	0x3c92597d	0.017864937
241	0x3d15dcf9	0.03658769
242	0x3c823fe8	0.015899613
243	0x3b8833a4	0.0041565467
244	0x3c97cdc6	0.018530738
245	0xbc6dd273	-0.014515507
246	0xbb2ed654	-0.0026678042
247	0xbb38efdb	-0.0028219137
248	0x3c694a7a	0.014238948
249	0x3ce2ee15	0.027701417
250	0x3d598d66	0.053113364
251	0x39d93aba	0.0004143322
252	0x3d5e3118	0.05424604
253	0x3d85f253	0.0654036
254	0xbb686ba6	-0.0035464554
255	0xbb40d43a	-0.0029423372

layers.6.bias f4 [128]
0	0x3ce941bd	0.02847373
1	0x3d14e3e3	0.036350142
2	0xba893f98	-0.0010471223
3	0xbcccce6d	-0.025000775
4	0x3cd0b086	0.025474798
5	0x3d0e8ddf	0.034803268
6	0x3d297ff1	0.04138178
7	0xbc93bf22	-0.018035475
8	0xbb1e4375	-0.0024149094
9	0x3d67590c	0.056481406
10	0xbc1741d3	-0.009232002
11	0x3a5f292a	0.0008512909
12	0xbb52958f	-0.00321326
13	0xbd246dff	-0.040143963
14	0xbb37b1fc	-0.002802967
15	0x3c06f9aa	0.0082382355
16	0xbcb4ed7e	-0.022085901
17	0x3d5b4cc2	0.05354
18	0xbd187ea6	-0.037230156
19	0x3ce930dd	0.028465683
20	0x3d407269	0.04698411
21	0x3b7bb853	0.0038409426
22	0x3c818a82	0.015813116
23	0xbbc42f1b	-0.0059870607
24	0x3da797be	0.081832394
25	0x3c51fb08	0.012816198
26	0xbc9fc984	-0.01950527
27	0x3ba0c888	0.0049067177
28	0x3c611dd7	0.0137400245
29	0xbd128734	-0.03577347
30	0xbd38b55f	-0.045094844
31	0x3d7d9b65	0.061915774
32	0x3d5daa45	0.05411746
33	0x3c6c7a25	0.014433418
34	0xbc6a4af8	-0.0143001005
35	0x3d834474	0.06409541
36	0xbb79e2b1	-0.0038129503
37	0x3cb19ce2	0.021681253
38	0xbcbdbfa3	-0.023162669
39	0xbc049430	-0.008091971
40	0x3ca0b3e6	0.019617032
41	0x3d05c9f2	0.032663293
42	0x3cb28dbf	0.021796105
43	0xbc95db76	-0.018293124
44	0xbcf63d54	-0.03005854
45	0xbcf88333	-0.030335998
46	0x3ae19f82	0.0017213675
47	0x3d59fd2c	0.05321996
48	0x3cb0775d	0.021541292
49	0xbc6eab1e	-0.014567165
50	0x3d1d2b7b	0.038371544
51	0xbd1b0b65	-0.037852664
52	0xbd21e21c	-0.039522275
53	0x3cdc9e8d	0.026931072
54	0x3b84bb7e	0.004050671
55	0x3d876931	0.066118605
56	0xbc1978ce	-0.009367181
57	0x3d095d50	0.033536255
58	0xbc129405	-0.008946423
59	0x3c9d592e	0.019207563
60	0xbbbfcdbd	-0.0058533833
61	0x3ce4f84f	0.027950434
62	0x3d1c434b	0.038150113
63	0x3d98b60c	0.07456598
64	0xbc8c32da	-0.017114092
65	0x3ceff475	0.02929137
66	0x3d4378f6	0.04772278
67	0x3d25b4cb	0.04045562
68	0xbc0fd301	-0.008778335
69	0x3d080c4a	0.033214845
70	0x3bdd8fc1	0.0067615216
71	0x3cad366d	0.021144116
72	0x3c0d20a7	0.008613742
73	0x3d9de102	0.077089325
74	0x3d95c97b	0.0731382
75	0x3a869caa	0.0010270078
76	0xbcefaa30	-0.029255956
77	0x3caea014	0.021316566
78	0x3b7633ec	0.003756757
79	0xbc6c187c	-0.014410134
80	0x3be5a673	0.0070083677
81	0x3c8f0f69	0.017463403
82	0xbcbb9d02	-0.022902016
83	0x3d066566	0.032811545
84	0xbd013c6b	-0.03155176
85	0x3ca6b04e	0.02034774
86	0xbc91ef56	-0.01781432
87	0x3d900536	0.07032244
88	0xbd3c9522	-0.04604066
89	0x3bbcd16d	0.00576227
90	0xbcadae6c	-0.021201335
91	0x3d6d5e7b	0.05795143
92	0x3d73d6ed	0.05953114
93	0x3d08176b	0.033225458
94	0x3d335287	0.043779876
95	0xbd1a80b1	-0.037720386
96	0x3d09ddd4	0.033658817
97	0x3d318cff	0.043347355
98	0xbd29fe26	-0.04150214
99	0x3c241ec0	0.010017097
100	0x3d5619b1	0.052270595
101	0x3afc5d0a	0.0019253802
102	0x3a44b2c5	0.00075034454
103	0xbca95c3c	-0.020673864
104	0xbcd18d55	-0.025580088
105	0x3c826950	0.015919358
106	0xbd123ea0	-0.035704255
107	0x3cf42d26	0.029806685
108	0xbcac61c9	-0.021042721
109	0x3d9ce6c0	0.076611996
110	0x3d865bc6	0.06560473
111	0x3c6013b3	0.013676572
112	0x3cef5bbc	0.029218547
113	0x3da147f8	0.07875055
114	0x3d21c8b7	0.039498057
115	0xbc4235b6	-0.011853626
116	0x3da2a86e	0.07942282
117	0xbcac24ff	-0.021013735
118	0xbd2a4452	-0.04156906
119	0x3c9e7790	0.019344121
120	0x3d87a6bc	0.06623599
121	0x3c9b78e3	0.018978542
122	0x3d587e71	0.05285496
123	0x3da0035a	0.07813139
124	0x3c3f8a59	0.0116906995
125	0x3d985234	0.07437554
126	0xbce582ea	-0.028016526
127	0xbd15974c	-0.03652124

layers.9.weight f4 [128, 64, 2, 2]
0	0xbd8e5fe8	-0.069518864
1	0xbbc62b5b	-0.006047649
2	0x3d1dc82d	0.03852098
3	0xbd704213	-0.058656763
4	0xbcee8a24	-0.029118605
5	0x3ceca26d	0.028886044
6	0x3cc730c0	0.024315238
7	0xbd03ebaf	-0.032207187
8	0x3d804519	0.06263179
9	0x3d72fbeb	0.05932228
10	0x3c538b80	0.012911677
11	0x3c04bdfe	0.008101938
12	0x3cb2f36f	0.021844594
13	0xbcb1ccdf	-0.021704135
14	0x3bd65c29	0.006541748
15	0x3d089860	0.03334844
16	0x3d4f4ed0	0.05061227
17	0x3da9073b	0.08253332
18	0xbd1c9e8c	-0.03823714
19	0x3cd0dd84	0.025496252
20	0x3d38925a	0.045061447
21	0xbd279de7	-0.04092207
22	0x3ced08b0	0.028934807
23	0x3bf2e014	0.007411966
24	0x3d174499	0.036930654
25	0x3c7ccbbe	0.015429435
26	0x3cb2cd47	0.0218264
27	0x3ca24474	0.019808032
28	0xbc2111f5	-0.009830941
29	0xbcf34be9	-0.029699283
30	0x3d8deb7c	0.06929681
31	0x3d045c5f	0.032314654
32	0xbd133ea0	-0.035948396
33	0xbd47fbc5	-0.04882409
34	0x3c992cef	0.018698184
35	0x3d34a959	0.044106815
36	0x3c3672d0	0.011135772
37	0x3cdf7fbf	0.027282594
38	0xbd5beeb3	-0.05369444
39	0x3d6bf547	0.05760696
40	0x3d8c751e	0.06858276
41	0xbcafb6a8	-0.021449402
42	0xbcf2b4b0	-0.029627174
43	0xbcecfa8c	-0.028928064
44	0xbcf14b98	-0.029454991
45	0x3d010189	0.031495605
46	0xbce36bf2	-0.027761433
47	0x3cf447ab	0.02981933
48	0xbd90b529	-0.070658036
49	0x3c9cde98	0.01914911
50	0xbd2d3cda	-0.04229436
51	0xbc1a4426	-0.009415662
52	0x3d0eb2f6	0.03483864
53	0xbcffd8fc	-0.031231396
54	0x3cdc8bcc	0.02692213
55	0xbd55b0c3	-0.052170526
56	0x3cc2038d	0.023683334
57	0x3d65e6fa	0.05612848
58	0x3d2c9fcd	0.042144585
59	0xbcd36166	-0.02580328
60	0x3c840dc4	0.016119845
61	0x3d51ebb8	0.05125019
62	0xbd7aa6b1	-0.061194126
63	0x3c28d954	0.010305721
64	0x3d5cfbc5	0.053951044
65	0xbd147261	-0.036241893
66	0xbd33d9af	-0.04390877
67	0x3cc23c0e	0.023710277
68	0x3d08f828	0.033439785
69	0xbd2ba9d9	-0.041910026
70	0x3c15824f	0.009125306
71	0x3d1e28d3	0.03861315
72	0xbd8e71d9	-0.069553085
73	0x3d1ba262	0.037996657
74	0xbc9752bb	-0.018472066
75	0x3b8f6af0	0.0043767616
76	0xbc1da024	-0.0096207
77	0x3cc68708	0.02423431
78	0x3d8d381d	0.068954684
79	0x3d608d90	0.054822505
80	0xbd41e007	-0.04733279
81	0x3d438b3b	0.047740202
82	0xba489b20	-0.000765251
83	0x3b3b4e80	0.0028580725
84	0x3d85cac2	0.065328136
85	0xbd18ae2a	-0.03727547
86	0x3bb77f54	0.0055998955
87	0x3d206969	0.039163027
88	0x3d231fba	0.03982518
89	0x3c962749	0.01832928
90	0xbd11d58d	-0.03560405
91	0x3d363236	0.04448148
92	0xbc90d286	-0.01767851
93	0xbd5bb283	-0.05363704
94	0x3d2e7a54	0.04259713
95	0x3c858d7b	0.016302815
96	0x3c006f30	0.007839009
97	0x3d7efc20	0.062252164
98	0xbceaafcd	-0.028648281
99	0x3c6da80d	0.014505398
100	0xbd24a344	-0.040194765
101	0xbb0fd54b	-0.00219472
102	0xbd50a529	-0.05093876
103	0xbd15497c	-0.036447033
104	0xbcf6df1e	-0.030135687
105	0xbd50d5ad	-0.050985027
106	0xbd3c1ecc	-0.045927808
107	0x3d4f25ba	0.05057309
108	0xbd27932e	-0.040911846
109	0xbd83ed10	-0.064417005
110	0xbd14388f	-0.03618675
111	0xba25863e	-0.0006314254
112	0x3d0c8563	0.034306895
113	0x3ced0842	0.028934602
114	0x3c8eaa32	0.01741514
115	0x3d63da3e	0.055628054
116	0xbc48e9de	-0.0122627895
117	0xbc1f138b	-0.009709249
118	0x3d153309	0.036425624
119	0x3ba54b20	0.005044356
120	0xbd87ac5e	-0.06624673
121	0x3c7a22a8	0.015267052
122	0xb9958b34	-0.0002852321
123	0xbbfa16fc	-0.0076321345
124	0xbd352969	-0.044228945
125	0xbd3c8c44	-0.046032205
126	0xbd30fd5f	-0.043210384
127	0x3d2e7503	0.04259206
128	0x3d532bcf	0.05155545
129	0x3d32773f	0.043570753
130	0xbb01e958	-0.0019822922
131	0xbc11b300	-0.008892775
132	0x3d8d24d7	0.06891792
133	0x3c4a359b	0.012341882
134	0x3d9af778	0.07566732
135	0x3d177e5b	0.036985736
136	0x3c3081bf	0.010773121
137	0x3d468a00	0.04847145
138	0x3d1c5340	0.03816533
139	0x3b8558d6	0.004069428
140	0xbcd8dea5	-0.026473353
141	0xbd4189b8	-0.04725048
142	0xbcffa888	-0.031208292
143	0x3d848e9a	0.064725116
144	0x3d6bae43	0.057539236
145	0x3d0b83ba	0.03406117
146	0xbcfe6054	-0.031051792
147	0x3c166450	0.00917919
148	0xbd97dc92	-0.07415117
149	0xbc16c376	-0.009201875
150	0x3ccbdfb2	0.02488694
151	0x3d48e1b9	0.04904339
152	0xbc549630	-0.012975261
153	0xbd23e394	-0.040011957
154	0x3b073c3a	0.0020635263
155	0x3d6e60f5	0.058197934
156	0xbbd00e2f	-0.006349347
157	0xbbd1b80d	-0.0064001144
158	0x3cfc9389	0.030832069
159	0xbd9adbd9	-0.07561464
160	0x3d09a78a	0.033607043
161	0xbb90f680	-0.0044239163
162	0x3c066f98	0.008205317
163	0xbcda9374	-0.02668164
164	0x3d04033f	0.03222966
165	0xbd725dba	-0.059171416
166	0xbb0ea5a0	-0.00217662
167	0x3d301100	0.042984962
168	0xbca602de	-0.020265039
169	0xbd50b51b	-0.050953966
170	0xba5f7885	-0.0008524734
171	0xbd863bef	-0.065544
172	0xbcb941a6	-0.022614311
173	0x3d1cd32c	0.038287327
174	0x3c728040	0.014801085
175	0xbd324fbf	-0.043533083
176	0x3cffa6f1	0.031207534
177	0x3d71470a	0.05890564
178	0xbd68bb69	-0.056819353
179	0xbd420b5b	-0.04737411
180	0x3bd1e2e4	0.0064052213
181	0x3c9c6422	0.019090716
182	0x3d2964f8	0.041356057
183	0x3da6195b	0.08110305
184	0x3d161fc3	0.036651384
185	0x3c324408	0.010880478
186	0x3d3070e2	0.043076403
187	0xbd091598	-0.03346786
188	0x3d457e22	0.048215993
189	0x3d37d20a	0.044878043
190	0x3d5b04d7	0.053471413
191	0xbca0d631	-0.019633384
192	0x3d5bd833	0.05367298
193	0x3cc55bc4	0.024091609
194	0xbd531c08	-0.051540405
195	0xbc30716b	-0.010769228
196	0xbb2477fb	-0.0025095928
197	0xbd2f4b13	-0.042796206
198	0xbd889c27	-0.06670409
199	0xbc15ed43	-0.009150806
200	0xbd355a56	-0.044275604
201	0xbd7c006a	-0.061523832
202	0xbbecd19f	-0.007227137
203	0xbd2911cb	-0.041276734
204	0x3d5627c5	0.05228402
205	0x3d02ad24	0.0319034
206	0xbcdf095d	-0.027226144
207	0xbce02c7c	-0.027364962
208	0xbd1dcfb3	-0.038528156
209	0x3d90ef44	0.07076886
210	0xbd303897	-0.04302272
211	0x3c8ee671	0.017443867
212	0xbd307794	-0.04308279
213	0xbbb93158	-0.005651634
214	0x3d72f951	0.059319798
215	0xbbe1df7c	-0.0068930965
216	0xbcebc2ee	-0.028779473
217	0xbc118adf	-0.008883207
218	0x3c935709	0.017985838
219	0xbd65856b	-0.05603544
220	0x3ca0cd58	0.019629166
221	0xbba907ff	-0.005158424
222	0xbcbe0ef5	-0.023200491
223	0xbc1c1080	-0.009525418
224	0x3bd79d61	0.0065800403
225	0xbd8b9468	-0.068154156
226	0x3c8de774	0.01732228
227	0xbce9980d	-0.028514886
228	0xbd6850d4	-0.05671771
229	0xbd2714ef	-0.04079145
230	0x3cfd11f8	0.030892357
231	0xbcc564cf	-0.02409592
232	0x3d493b6e	0.049128942
233	0x3d36be49	0.044615064
234	0xbcbdecda	-0.023184229
235	0xbd0464ff	-0.03232288
236	0x3c39aeae	0.011333151
237	0x3b266994	0.002539252
238	0x3c85da3a	0.01633941
239	0xbd3c98e2	-0.046044238
240	0x3c92742a	0.017877657
241	0x3b4c15c1	0.0031140896
242	0x3c0b1b3e	0.008490382
243	0xbbd816f8	-0.006594535
244	0x3d38f14e	0.045152
245	0xbcd38e70	-0.025824755
246	0x3d1707f7	0.03687283
247	0x3dbccc99	0.092187114
248	0xbd7a40c6	-0.06109693
249	0xbd6209e5	-0.055185217
250	0x3d6a07de	0.05713641
251	0x3d10d48a	0.035358943
252	0x3d9cc3ab	0.07654508
253	0x3d381712	0.044943877
254	0x3d3a7ff9	0.0455322
255	0xbc54ce77	-0.012988678

layers.9.bias f4 [64]
0	0x3d3c40c7	0.045960214
1	0xbc95bfdb	-0.01827996
2	0x3d04f9ed	0.03246491
3	0xbd0f3af1	-0.03496832
4	0x3d6ec07a	0.05828903
5	0xbc82395a	-0.015896488
6	0x3c9158f6	0.017742615
7	0x3d96ebcb	0.07369193
8	0x3d42e125	0.047577996
9	0x3cd4dc93	0.025984084
10	0xbcfb09f2	-0.03064439
11	0x3d4a4b64	0.049388304
12	0xbd7b9d62	-0.06142939
13	0xbd8a5534	-0.067545325
14	0x3db70573	0.08936586
15	0xbc5e00c3	-0.013549986
16	0x3c593fe7	0.013259864
17	0xbb23ac79	-0.0024974628
18	0x3ca682b1	0.02032599
19	0xbcb090dc	-0.02155345
20	0xbd954687	-0.07288843
21	0xbb09a4aa	-0.0021002688
22	0x3c96ddfb	0.018416395
23	0x3c8bf6be	0.01708543
24	0xba3700f4	-0.0006981038
25	0xbc7adc95	-0.01531138
26	0xbd15f120	-0.036606908
27	0xbcbba263	-0.02290458
28	0xbd92d244	-0.07169011
29	0x3d1e7ff9	0.038696263
30	0x3cddf000	0.02709198
31	0x3cdb91b1	0.02680287
32	0xbd2385bb	-0.039922457
33	0x3dde19cc	0.10844764
34	0xbd483211	-0.048875872
35	0x3d62d538	0.055379122
36	0xbd3c74b5	-0.046009738
37	0xbd4ac767	-0.04950657
38	0x3da2d2c4	0.079503566
39	0xbb6652b7	-0.0035144517
40	0xbd424f8d	-0.047439147
41	0xbd5b0556	-0.053471886
42	0xbc18e7f8	-0.009332649
43	0xbd91f08b	-0.07125958
44	0xbcd6671b	-0.026172211
45	0x3d4d39a4	0.0501038
46	0x3d8cab4e	0.06868611
47	0xbc0cdc25	-0.008597408
48	0xbda9673e	-0.08271645
49	0xbc3f5fd1	-0.011680559
50	0xbd7fab53	-0.062419247
51	0xbd855a60	-0.06511378
52	0xbd02ebef	-0.031963285
53	0xbc89b51a	-0.016809989
54	0x3b3207d6	0.0027165315
55	0xbd32ceda	-0.0436543
56	0x3d48fe42	0.049070604
57	0xbcccd17a	-0.02500223
58	0x3cc669ea	0.024220426
59	0xbcab5052	-0.020912323
60	0xbc230eb5	-0.009952237
61	0x3d6137e9	0.05498496
62	0x3d310463	0.043217074
63	0x3dad1088	0.08450419

layers.11.weight f4 [64, 32, 2, 2]
0	0xbcd8bef7	-0.026458247
1	0x3ca095ca	0.019602675
2	0x3d715eed	0.05892842
3	0xbd3391ef	-0.043840345
4	0xbd96899a	-0.07350464
5	0xbd839d08	-0.06426436
6	0xbd4a8570	-0.049443662
7	0x3db27842	0.087143436
8	0xbd399254	-0.045305565
9	0xbd4febc1	-0.05076194
10	0x3c97489f	0.018467246
11	0x3ccbc68d	0.02487495
12	0xbd371dd9	-0.0447062
13	0x3db344a9	0.0875333
14	0x3da72339	0.08161015
15	0x3da89282	0.08231069
16	0x3cc0e84d	0.02354827
17	0xbbf3e48e	-0.0074430173
18	0xbd3b006f	-0.04565471
19	0xbabcd6ab	-0.0014407238
20	0x3d943eb8	0.07238525
21	0xbd8ef4ed	-0.0698031
22	0x3d77c580	0.060491085
23	0x3dab7aea	0.08373053
24	0xbbd3bd4d	-0.0064617754
25	0xbd1e41e2	-0.03863705
26	0xbd0304de	-0.031987064
27	0x3c996f2a	0.018729765
28	0xbc01ee15	-0.007930298
29	0xbd485f78	-0.04891917
30	0x3da5dc87	0.08098703
31	0x3d0648f5	0.03278442
32	0xbd7970ae	-0.060898475
33	0xbd529165	-0.05140819
34	0x3d72a604	0.059240356
35	0xbcd94a2c	-0.026524626
36	0x3c19048f	0.009339466
37	0x3d2d74ad	0.0423476
38	0x3d35d61b	0.04439364
39	0xbd6234f8	-0.055226296
40	0xbb50437e	-0.003177851
41	0x3db3f10b	0.0878621
42	0xbcdbdc75	-0.02683852
43	0x39c6eab6	0.00037940376
44	0xbd32c9a0	-0.043649316
45	0xbcc9e33f	-0.024644492
46	0x3d5ecff1	0.054397527
47	0xbd358743	-0.04431845
48	0x3d0decb4	0.034649566
49	0xbb814b3a	-0.0039457353
50	0x3d167f4c	0.036742494
51	0x3da8d839	0.08244366
52	0xbd9bdb6d	-0.076102115
53	0x3d7ea144	0.062165514
54	0xbced17e0	-0.028942049
55	0x3d4e1443	0.05031229
56	0x3dcc1d19	0.099664874
57	0xbcbd3c90	-0.023100168
58	0xbd13c5c9	-0.036077294
59	0x3d146892	0.03623254
60	0xbdb8d2b1	-0.09024561
61	0xbd9bb396	-0.07602613
62	0xbca2f4bb	-0.019892087
63	0x3d4ee6e9	0.05051318
64	0x3d86e720	0.06587052
65	0xbd80d57c	-0.06290719
66	0x3d6d7e8c	0.057982013
67	0x3dc02869	0.093827076
68	0xbd46543a	-0.04842017
69	0x3d82db6e	0.06389509
70	0x3d016154	0.03158696
71	0x3dca4b99	0.098777
72	0xbd06c9c6	-0.03290727
73	0x3c363438	0.011120848
74	0x3cc258cb	0.02372398
75	0xbdae76d5	-0.08518759
76	0x3d5dea89	0.05417875
77	0xbdc0ec63	-0.09420087
78	0xbd7be669	-0.061499033
79	0xbda77ca6	-0.08178072
80	0x3cd42923	0.025898522
81	0x3af94511	0.0019017776
82	0xbd93f212	-0.072239056
83	0xbc1b5183	-0.009479883
84	0xbd34a380	-0.04410124
85	0x3d14cec3	0.036329996
86	0xbd587e79	-0.05285499
87	0xbd7b3991	-0.061334196
88	0xbd8b6e68	-0.06808168
89	0x3d0ba26c	0.034090444
90	0xbdbde827	-0.09272795
91	0xbdb9685a	-0.090531066
92	0x3b9c1f52	0.004764476
93	0xbd3fd061	-0.046829585
94	0xbccfd289	-0.025368946
95	0x3bdb5a2f	0.0066941003
96	0xbd206e3c	-0.039167628
97	0x3c1c5934	0.009542752
98	0x3da50994	0.080584675
99	0xbc9a22eb	-0.018815478
100	0x3ce06d14	0.027395763
101	0xbd6cb75a	-0.057792045
102	0xbd192d78	-0.037396878
103	0x3cdcdd2c	0.026960932
104	0xbba37f90	-0.004989572
105	0x3d0cb94c	0.0343564
106	0xbd3a2099	-0.045441244
107	0xbc0c990c	-0.008581411
108	0x3da9dd5c	0.08294174
109	0xbc5357da	-0.012899363
110	0xbbd947ea	-0.0066308873
111	0xbd30f9c0	-0.04320693
112	0xbc0f19a8	-0.008734144
113	0x3c6f67c9	0.014612147
114	0xbc772976	-0.015085569
115	0xbb7b8557	-0.0038379037
116	0x3bf189d6	0.0073711677
117	0x3d2840cc	0.04107742
118	0xbc912cfa	-0.017721642
119	0x3d9105bc	0.07081172
120	0x3dc0ead1	0.09419788
121	0x3cf08437	0.02935992
122	0x3d58038b	0.052737754
123	0xbd4ce0e8	-0.050019175
124	0x3c90fdb7	0.017699106
125	0xbd36febb	-0.044676524
126	0x3d80eeba	0.062955335
127	0xbd2ca046	-0.042145036
128	0xbd81ea2a	-0.063434914
129	0xbd6329b0	-0.05545968
130	0xbd990823	-0.07472255
131	0x3db93571	0.09043396
132	0x3db1a510	0.08674061
133	0xbd5554d4	-0.05208285
134	0x3d2e98a9	0.042626057
135	0xbd136b35	-0.035990912
136	0xbcf5d41c	-0.030008368
137	0xbc08d908	-0.0083525255
138	0x3d9b0f40	0.07571268
139	0xbc584deb	-0.013202171
140	0x3d3308d0	0.043709576
141	0x3d3f2c6e	0.04667323
142	0x3c12a394	0.008950133
143	0xbd597318	-0.053088278
144	0x3d3b3e40	0.045713663
145	0x3c1e76ce	0.00967188
146	0x3cff263d	0.031146163
147	0xbb700d15	-0.0036628891
148	0xbca56e0b	-0.020194074
149	0xbd818e3a	-0.06325956
150	0x3cb6310f	0.02224019
151	0x3d95095f	0.07277178
152	0xbd9abe26	-0.07555799
153	0xbd0544cf	-0.032536324
154	0xbd632b88	-0.055461437
155	0xbd8f7a27	-0.070057206
156	0x3dace647	0.084423594
157	0xbc8b74b7	-0.017023427
158	0x3cb41f0d	0.021987462
159	0xbd52333f	-0.051318403
160	0xbd9f1371	-0.0776738
161	0xbdbd00f7	-0.092287
162	0x3cca0c8f	0.024664192
163	0x3d82c101	0.06384469
164	0x3cac5ad1	0.021039398
165	0x3b9c85ae	0.004776678
166	0x3d3b6689	0.045752082
167	0x3d1fc863	0.039009463
168	0x3da26d73	0.07931032
169	0xbd85535b	-0.065100394
170	0xbda1380d	-0.07872019
171	0x3d47aa03	0.04874612
172	0x3cb52f92	0.02211741
173	0x3d9726e0	0.07380462
174	0xbda647bc	-0.08119151
175	0xbd5d57c7	-0.05403879
176	0xbda641f6	-0.0811805
177	0x3dadfb8c	0.084952444
178	0x3cf37c97	0.029722495
179	0x3d15e0dd	0.0365914
180	0x3d79ffe9	0.06103507
181	0x3d4538db	0.048149925
182	0xbd52d2aa	-0.051470436
183	0x3d5d19b1	0.05397958
184	0xbd9fbab7	-0.07799285
185	0x3d3a2426	0.04544463
186	0x3d7e3a81	0.062067512
187	0xbd66392d	-0.05620687
188	0x3d3c741d	0.04600917
189	0xbd9b7a58	-0.075916946
190	0xbd3dbeef	-0.046324667
191	0x3d8d449c	0.06897852
192	0x3d173beb	0.036922377
193	0x3d23be85	0.039976615
194	0xbcef03ae	-0.02917656
195	0x3d902d35	0.070398726
196	0xbcaec672	-0.02133486
197	0x3d80d285	0.062901534
198	0xbd632a04	-0.05545999
199	0xbd89d296	-0.06729619
200	0xbd97d591	-0.074137814
201	0x3d035771	0.032065812
202	0x3d144df7	0.036207166
203	0x3cd757be	0.026286956
204	0xbd879549	-0.06620271
205	0x3da54fd2	0.08071865
206	0xbc7c254d	-0.015389753
207	0xbd91f29a	-0.07126351
208	0xbdb43cdc	-0.088006705
209	0xbdae45e0	-0.08509421
210	0xbd5fd8dc	-0.054650173
211	0xbb66e998	-0.0035234448
212	0xbaccc354	-0.0015622177
213	0x3c936925	0.017994473
214	0x3cf062fb	0.029344073
215	0x3d2518ea	0.040306963
216	0x3db0085d	0.08595345
217	0x3c581ce8	0.013190486
218	0x3db06140	0.08612299
219	0x3d3d88af	0.04627293
220	0x3d656c2a	0.056011356
221	0xbc92a720	-0.017901957
222	0x3d8b3983	0.06798079
223	0xbda5fc50	-0.081047654
224	0xbd8630c4	-0.0655227
225	0xbd7fff7c	-0.06249951
226	0xbbd71af4	-0.0065644924
227	0xbd6918ca	-0.056908406
228	0x3d6e882e	0.05823534
229	0x3dab5901	0.083665855
230	0xbcdf404b	-0.027252337
231	0x3c69df22	0.01427439
232	0x3b13c3e8	0.002254719
233	0xbdb1d307	-0.086828284
234	0x3d996bfd	0.074913
235	0x3d8b44bd	0.0680022
236	0x3ceaadcc	0.028647326
237	0x3d920805	0.07130436
238	0xbd85b770	-0.065291286
239	0xba48c4c3	-0.00076587143
240	0xbd4395e0	-0.047750354
241	0x3cf05e41	0.029341819
242	0xbda3dca9	-0.08001072
243	0x3daa9da2	0.08330847
244	0xbd99297c	-0.07478616
245	0x3d52394f	0.051324185
246	0xbd4ad272	-0.049517103
247	0x3d9373de	0.07199834
248	0x3db25805	0.08708195
249	0xbda15f33	-0.07879486
250	0xbd8b7488	-0.06809336
251	0x3d56506a	0.052322783
252	0xbc1aa85e	-0.009439556
253	0xbce14889	-0.027500408
254	0x3ca37b82	0.019956354
255	0x3d5e98a7	0.0543448

layers.11.bias f4 [32]
0	0x3d9b1f6d	0.07574353
1	0xbd66894c	-0.05628328
2	0x3dae1f49	0.08502061
3	0x3d3c24e8	0.045933634
4	0xbde0786c	-0.10960469
5	0x3e0688da	0.13138142
6	0xbdb9671d	-0.090528704
7	0xbd8940b4	-0.06701794
8	0x3dcb539d	0.09928057
9	0xbc03eae1	-0.008051605
10	0xbc9264ba	-0.017870296
11	0x3d8a5ff5	0.067565836
12	0xbdb167a6	-0.086623475
13	0x3bd02bb2	0.006352865
14	0x3d2737f1	0.040824834
15	0xbb0b5d6f	-0.0021265408
16	0x3d162dde	0.036664836
17	0x3d0ea516	0.034825407
18	0xbdff2094	-0.12457386
19	0x3d8ff647	0.070293956
20	0xbd5c8fb2	-0.053847976
21	0x3d5491f3	0.051897
22	0x3d8bc58a	0.06824787
23	0xbd90a41d	-0.07062552
24	0x3a56d090	0.00081945304
25	0x3df8007d	0.12109468
26	0x3b3ea5ea	0.0029090592
27	0xbc59c2a0	-0.013291031
28	0xba799d0e	-0.0009521999
29	0x3d43c067	0.04779091
30	0x3d47dd03	0.048794758
31	0xbda1486d	-0.07875142

layers.13.weight f4 [32, 16, 2, 2]
0	0x3d86a33f	0.065741055
1	0xbdb3d6d6	-0.08781211
2	0xbcd8130f	-0.026376275
3	0xbd66faeb	-0.056391638
4	0x3dca1b48	0.09868485
5	0x3d4cc7b4	0.04999514
6	0x3d8058cf	0.06266939
7	0xbdfb8f07	-0.1228314
8	0xbd92ebef	-0.07173907
9	0xbddb3112	-0.10702719
10	0x3c7eef5a	0.015559996
11	0x3da67423	0.0812762
12	0x3dc3484e	0.095352754
13	0x3dbcab82	0.092124
14	0x3af9a5bc	0.0019046585
15	0xbe0d8b4f	-0.13822673
16	0xbced32ab	-0.028954824
17	0x3d922bc4	0.07137254
18	0xbd8f7923	-0.07005527
19	0x3d5bc3ff	0.053653713
20	0xbdf95c7a	-0.12175842
21	0x3ceead7e	0.029135462
22	0x3c1bdf0b	0.009513627
23	0x3ce4a343	0.02790988
24	0x3d5a68ab	0.053322475
25	0x3dd06d65	0.10177115
26	0xbd3f9243	-0.046770345
27	0xbcb1b135	-0.021690944
28	0xbdc772a0	-0.0973866
29	0x3d9e5847	0.07731681
30	0xbc13dee2	-0.009025307
31	0x3dfd80d9	0.12378091
32	0xbd997bae	-0.07494293
33	0x3d97c34c	0.07410297
34	0x3da353fd	0.07975004
35	0x3dc12ec8	0.09432751
36	0xbc80e6a8	-0.015734985
37	0x3d92409a	0.07141228
38	0x3d04e524	0.032445088
39	0x3dccc464	0.09998396
40	0xbcbc9ccf	-0.02302399
41	0x3d67724c	0.056505486
42	0x3c2e1320	0.010624677
43	0xbd8fb2cd	-0.070165254
44	0xbcce8de6	-0.025214147
45	0xbd772acc	-0.06034355
46	0xbd517172	-0.05113358
47	0x3b90c9fd	0.00441861
48	0xbe068812	-0.13137844
49	0xbd20d03c	-0.039261088
50	0xbb3d1d01	-0.00288564
51	0xbd87b50a	-0.06626327
52	0xbdffda66	-0.12492828
53	0xbc97d272	-0.018532965
54	0x3d91e8ed	0.07124505
55	0xbdcef4dc	-0.10105297
56	0x3d6dd902	0.058068283
57	0x3e26580b	0.16244523
58	0x3e07f2a9	0.13276161
59	0x3bda0a42	0.006654055
60	0x3d121447	0.03566387
61	0x3c4738e0	0.012159556
62	0xbd25875d	-0.040412296
63	0x3dee0f42	0.11624004
64	0x3dd050e1	0.101716764
65	0xbd7605fc	-0.0600643
66	0xbd9278e8	-0.07151967
67	0x3c9196e7	0.017772151
68	0x3d82b531	0.06382216
69	0x3d72a148	0.05923584
70	0x3d0b3077	0.033981767
71	0x3dbfd866	0.093674466
72	0xbdcecbcf	-0.10097467
73	0x3d8321d1	0.06402934
74	0xbdaea44c	-0.08527431
75	0x3d7b4c5d	0.061352123
76	0xbbac0e09	-0.0052506966
77	0x3d888224	0.06665447
78	0x3d85491e	0.065080866
79	0xbdf3c34b	-0.119024836
80	0xbdc0ad03	-0.09407999
81	0xbd95cac4	-0.07314065
82	0x3cb103b6	0.021608215
83	0x3d8ad8ac	0.06779608
84	0x3d9c4d40	0.07631922
85	0xbdbe6e08	-0.092983305
86	0xbdd5d936	-0.1044182
87	0xbd6c6b40	-0.05771947
88	0xbdd050a4	-0.10171631
89	0xbdd429d5	-0.10359541
90	0x3d92f155	0.07174937
91	0xbdd8a87e	-0.10579012
92	0x3d67e19f	0.056611653
93	0x3d64ba53	0.055841755
94	0x3d97d633	0.07413902
95	0xbc838efb	-0.01605939
96	0x3c73509c	0.014850762
97	0xbda7f3e6	-0.08200817
98	0xbdb9f711	-0.09080327
99	0xbd5b4947	-0.05353668
100	0xbd2d6ac6	-0.042338155
101	0xbd4f29ec	-0.05057709
102	0x3d803619	0.06260318
103	0x3d06374b	0.032767575
104	0x3e06aa7b	0.1315097
105	0x3d25de54	0.04049523
106	0x3e3002ea	0.17188612
107	0xbd95f92b	-0.07322916
108	0x3d64a744	0.05582358
109	0xbdeba52d	-0.11506114
110	0x3d730aa5	0.059336323
111	0x3c15c710	0.0091416985
112	0xbd9dc684	-0.077038795
113	0x3dd1d1b7	0.10245078
114	0xbcb85522	-0.022501532
115	0x3d81ba3f	0.06334352
116	0xbd4d32b0	-0.050097167
117	0x3d228fc4	0.039687887
118	0xbd90eb2c	-0.070761055
119	0x3d23c284	0.039980426
120	0x3e0fc4d1	0.14039923
121	0xbae9c946	-0.0017836473
122	0x3dbad2ed	0.09122262
123	0x3d77dd61	0.060513858
124	0x3d9db4cc	0.077005
125	0xbd86b7c2	-0.06578018
126	0x3dc4657e	0.095896706
127	0xbdddd296	-0.10831182
128	0x3cfb9223	0.030709332
129	0xbe08ab3c	-0.1334657
130	0xbe075953	-0.13217668
131	0x3d5593a7	0.052142765
132	0x3db33595	0.08750454
133	0x3d536ea0	0.051619172
134	0xbd3bac4d	-0.045818616
135	0xbd9a272a	-0.07527001
136	0x3d719751	0.058982197
137	0xbd5614b3	-0.052265834
138	0xbcedeb78	-0.029042944
139	0x3cf77212	0.03020576
140	0xbda01bbf	-0.07817792
141	0xbd69b8a0	-0.057060838
142	0x3dcea247	0.10089546
143	0x3d81b982	0.06334211
144	0x3d6ab1ed	0.05729859
145	0xbd5b0532	-0.05347175
146	0x3e0749dc	0.13211769
147	0xbddb5b2a	-0.107107475
148	0xbe01814f	-0.12646984
149	0x3d3577d4	0.04430373
150	0xbdcbb475	-0.09946529
151	0x3daed65a	0.08536978
152	0xbde95415	-0.113929905
153	0x3af0f93e	0.0018384827
154	0xbdcc90df	-0.099885695
155	0x3a89c993	0.0010512344
156	0x3d8a9b4d	0.067679025
157	0x3cd99247	0.026559008
158	0x3d19cf6a	0.03755132
159	0xbd8d8ece	-0.069120035
160	0x3dec449d	0.115365244
161	0x3dd67950	0.10472357
162	0x3ce927df	0.028461395
163	0x3d3f026c	0.04663317
164	0x3d5ee960	0.054421782
165	0xbc7d9270	-0.015476808
166	0xbd4b1f8e	-0.04959064
167	0x3d9853e3	0.07437875
168	0x3df26e07	0.11837392
169	0xbd90fdb0	-0.07079637
170	0x3d77e6e6	0.060522936
171	0x3e02bab5	0.12766536
172	0xbdea64d6	-0.11445014
173	0x3cd15c93	0.025556838
174	0x3d087622	0.033315785
175	0xbdda3bbd	-0.106559254
176	0xbd21f82f	-0.039543327
177	0xbd40436f	-0.04693931
178	0xbe17fbd4	-0.14842159
179	0x3bde4bdf	0.006783947
180	0xbd3f4a24	-0.046701565
181	0x3da6c321	0.08142687
182	0x3de43b8a	0.11144169
183	0x3d98a4de	0.07453321
184	0x3df2ba7e	0.11851977
185	0x3dd150bb	0.10220476
186	0xbdcd90ac	-0.100373596
187	0x3df9234b	0.12164935
188	0x3da0f084	0.07858375
189	0xbd787948	-0.060662538
190	0x3cfedfef	0.03111264
191	0x3d8ce82e	0.06880222
192	0xbe11dac9	-0.14243616
193	0xbdcb1b49	-0.099173136
194	0xbd8409e8	-0.06447202
195	0xbdf9a9c3	-0.121905826
196	0xbdc2ef7c	-0.09518334
197	0x3d91b846	0.071152255
198	0x3dafb7af	0.08579957
199	0xbdee66ac	-0.11640677
200	0x3dba4b8a	0.09096439
201	0x3dc9a6d1	0.09846271
202	0xbcbbcc46	-0.022924554
203	0x3d8567d5	0.06513945
204	0xbd703f8c	-0.058654353
205	0xbd3d4c1d	-0.046215165
206	0x3c749530	0.014928147
207	0x3d38acae	0.045086555
208	0xbd423c14	-0.047420576
209	0xbca49def	-0.02009484
210	0x3dd59450	0.10428679
211	0xbd78962e	-0.060690098
212	0xbd10ed7d	-0.035382736
213	0x3da85d19	0.08220882
214	0x3c190d35	0.009341528
215	0x3d4eb39f	0.05046427
216	0x3d53ea3b	0.05173705
217	0x3dd1b7c1	0.102401264
218	0x3d80f086	0.06295876
219	0x3d404257	0.046938267
220	0xbdb31da9	-0.087458916
221	0x3d1d597b	0.038415413
222	0xbe098c7a	-0.13432494
223	0xbcc3cc32	-0.023901079
224	0x3cfa9fee	0.030593839
225	0x3c8904ec	0.01672598
226	0x3da73344	0.08164075
227	0xbd848d4a	-0.06472261
228	0x3d6dc150	0.058045685
229	0xbd51463c	-0.05109237
230	0x3d8b4964	0.068011075
231	0x3dedb660	0.11607051
232	0xbd76f57d	-0.06029271
233	0xbd44895c	-0.04798256
234	0xbd1c68f4	-0.03818603
235	0x3d18957a	0.037251927
236	0x3cbeddd2	0.023299132
237	0xbd88426e	-0.066532955
238	0x3c253731	0.010083959
239	0x3c42a9ab	0.011881272
240	0xbd92b00b	-0.07162484
241	0xbcc1ea90	-0.023671418
242	0xbe15777f	-0.14596365
243	0x3cc03b5f	0.02346581
244	0x3a219700	0.00061641634
245	0xbd8306e3	-0.06397798
246	0x3dc97bfc	0.09838101
247	0xbac78048	-0.0015220726
248	0x3e1f1374	0.15534765
249	0x3dcdc8a5	0.100480355
250	0xbc11147c	-0.0088549815
251	0xbca97ee9	-0.020690398
252	0xbcd7fab4	-0.026364662
253	0x3c5ef260	0.013607591
254	0x3d2ad511	0.041707102
255	0xbd49b1fe	-0.049242012

layers.13.bias f4 [16]
0	0x3c9d20ce	0.019180682
1	0xbd0ba8a4	-0.034096375
2	0x3cc9d780	0.024638891
3	0xbd99ecf9	-0.07515902
4	0x3e11439b	0.14185946
5	0xbe02d79a	-0.12777558
6	0xbd4b55b5	-0.049642283
7	0xbdf0f93c	-0.11766288
8	0x3e073b8d	0.1320631
9	0xbd8e8656	-0.06959216
10	0x3dc1213d	0.09430168
11	0x3dc24146	0.09485106
12	0x3d79564f	0.060873326
13	0xbdab0859	-0.083512016
14	0x3df85539	0.1212563
15	0xbcd9c585	-0.026583442
